checkpoint/model.pth (torch, 591313 bytes, 22 tensors)

conv1.weight f4 [32, 3, 5, 5]
000000 d0 2f fe bb 8b a8 1e 3d 3f e3 26 3e e5 9d 7d bd
       -0.0077571645 0.038734954 0.16297625 -0.061918158
000010 32 76 8b bd 07 11 c5 3b 94 1a 3a bd 4d ec 09 3e
       -0.06809653 0.0060139927 -0.045435503 0.13469048
000020 16 0b dd 3d 8e d5 cf 3d 91 78 16 be cf 6b 0b be
       0.1079313 0.10148154 -0.1469443 -0.13615344
000030 3f f1 00 3d 26 1f 0d 3e a4 d0 cb 3d 46 00 22 be
       0.03148007 0.13781413 0.099519044 -0.15820417
000040 81 e4 2b 3d f5 60 4f be e4 49 0e be f9 91 28 3e
       0.041965965 -0.2025183 -0.13895375 0.16461934
000050 52 e6 8e bd 42 15 96 3a 01 56 12 bd c8 0b ad bd
       -0.06977524 0.0011450427 -0.03572655 -0.08449513
000060 06 7d 12 3e 0d 6a d2 bd 8b 28 bb 3d 4f fe 6b 3c
       0.14305505 -0.10274134 0.09138592 0.014403894
000070 d6 ab 4e 3d 51 3f 0d be 7a 74 82 3d 86 51 cc bd
       0.050456844 -0.13793685 0.063698724 -0.09976487
000080 7f 29 03 3e 4d ad 14 3e 84 c6 93 bd d7 87 9f bd
       0.12808798 0.14519234 -0.07215598 -0.07789581
000090 2c b7 dc bd f0 8a d6 bd 21 6a 21 3e 79 f9 b3 3d
       -0.10777125 -0.10475719 0.15763141 0.087878175
0000a0 9d a1 a7 bc 90 ed 78 3d bd 5b c7 bd c5 9d c6 3c
       -0.020462805 0.060773432 -0.097342946 0.024245152
0000b0 a8 a0 05 3d 33 11 fc 3c 08 e0 db bd 82 0a 8e bd
       0.032623917 0.03076992 -0.1073609 -0.06935598
0000c0 d0 bb 7e 3d d9 bf dd 3d db b4 29 be 3f 49 1d bc
       0.06219083 0.10827608 -0.16572897 -0.009599983
0000d0 60 d6 dd 3d 54 d9 3b bc 9c c8 0e be 3b 72 0c 3d
       0.108319044 -0.011465389 -0.13943714 0.034288626
0000e0 1e a5 8c bd 6e 3e 8b 3d cf 3f d0 3d 97 2e fb 3d
       -0.06867431 0.06799017 0.101684205 0.12264746
0000f0 de f0 2e be ea eb 64 3d 5e 6f 44 3d 74 bf 61 3e
       -0.17084071 0.055889048 0.04795777 0.2204569
000100 c2 0e 84 3e 78 10 f7 bc 96 62 9f bd 94 ef 0b be
       0.2579251 -0.03015922 -0.07782476 -0.1366561
000110 ff a1 34 3d 63 f3 8b 3e 6a 25 a4 bd 62 99 b2 bd
       0.044099804 0.27334127 -0.08014949 -0.08720662
000120 3d 04 eb 3b 83 05 47 3d 7e 20 d5 3d 2f d3 9b bd
       0.007172136 0.04858924 0.10406588 -0.076086394
000130 c1 5f 38 3e 52 e9 99 3e df 15 9d 3e 7f 3d 63 3e
       0.18005277 0.30060822 0.3068075 0.22191428
000140 56 6d 2c be aa b2 93 bb 96 47 99 3e 8e 2c 83 3e
       -0.16838583 -0.0045073824 0.29937428 0.2561993
000150 72 c3 83 3e 05 a6 bf bd c6 22 cb bd 7a 03 e3 3b
       0.2573505 -0.093578376 -0.09918742 0.0069279047
000160 29 65 c5 3d 62 84 ca 3c 64 58 0e be 97 9b 47 bc
       0.096384354 0.024721328 -0.13900906 -0.012183092
000170 4a 3e ee 3c 8d ea a5 39 97 69 57 3d 3b 60 84 bc
       0.029082436 0.00031646006 0.052590933 -0.016159168
000180 cf 19 f8 3c 71 f7 85 3c 8c fe 6b 3d 7e 4f 2a 3b
       0.030285744 0.01635334 0.0576158 0.0025987322
000190 06 e5 e2 bd 28 9b 2b 3c 46 a2 10 be 49 49 49 3b
       -0.11078839 0.010474004 -0.14124402 0.0030713847
0001a0 fa 56 2f bd 35 19 ea bd 11 6d 68 be 7b 8a 80 be
       -0.042807557 -0.11430589 -0.22697856 -0.25105652
0001b0 06 20 09 bc e6 64 88 3c e1 74 05 be c7 11 9a be
       -0.008369451 0.016649675 -0.13032867 -0.30091688
0001c0 a9 85 be be 87 e8 cb bd 42 2f a5 bd a1 d0 ff 3c
       -0.3721135 -0.099564604 -0.08065654 0.031227412
0001d0 7d 86 84 bd 0b b8 41 be 21 d4 45 be 34 05 06 be
       -0.06470964 -0.18917863 -0.19319202 -0.13087922
0001e0 bf af 1b 3d 80 36 df 3d 86 66 88 3b fa 75 c2 bd
       0.0380094 0.10899067 0.0041626124 -0.094951585
0001f0 62 bf 99 3d d8 c6 2e 3e 19 6f 1c 3b d7 21 08 3c
       0.075072065 0.1706804 0.002386993 0.008308849
000200 ec 74 6f bd b2 04 aa 3c 49 f4 b1 bc 11 74 94 3d
       -0.058461115 0.020754192 -0.02172293 0.072487004
000210 8d a7 fe bd e1 0e 7e bd c7 6c 31 bd f1 83 4f bb
       -0.124343015 -0.06202591 -0.04331663 -0.0031664337
000220 80 14 18 3d e9 77 47 be 19 70 39 be 9a 06 83 bd
       0.037128925 -0.19479336 -0.18109168 -0.063977435
000230 ce 82 30 3e 33 02 83 3e b0 e6 61 3d 0b ea d0 bd
       0.17237398 0.25587615 0.05515164 -0.1020089
000240 37 82 59 bd 07 e8 e7 3d 42 15 87 3e 2a d9 11 3d
       -0.0531027 0.113235526 0.26383406 0.035607494
000250 13 4c b1 bc dc cc 60 bc f1 45 f0 3c 49 65 ac 3d
       -0.02164272 -0.013720717 0.029330226 0.08417756
000260 36 5a 7c bc 9c 37 9c 3d a7 c9 ee bd f8 e3 9c 3d
       -0.015402367 0.07627794 -0.11659556 0.07660669
000270 54 ec e7 3d 3a ba 0f be ef df de 3c 47 a5 34 be
       0.11324373 -0.14035884 0.02720639 -0.17641173
000280 ad 4e 0e 3e 12 d6 6d 3d 3a 02 ac 3c 88 78 de bd
       0.138972 0.05806548 0.020997155 -0.10862833
000290 b7 36 0b be 62 9e b7 bd 9e 68 c7 bd eb f5 a0 bd
       -0.13595091 -0.08965756 -0.09736751 -0.07859405
0002a0 15 b5 81 bc 4a 78 08 be e6 68 46 3c 9c 38 33 be
       -0.015833417 -0.13327137 0.012109971 -0.17502064
0002b0 a3 0c 48 be 5e 62 88 bd 4b 83 b0 bd a3 2a c4 3d
       -0.1953607 -0.06659387 -0.08618792 0.09578445
0002c0 b9 6b 7d 3d cc b5 1f 3d 9f 55 fb bd 27 b5 8c bc
       0.06187031 0.038991734 -0.1227219 -0.017176224
0002d0 23 7c fa 3d 71 b0 0d 3e b5 d0 84 3d 13 d3 6a bd
       0.122307085 0.13836838 0.0648512 -0.057330202
0002e0 19 97 11 be 63 24 21 3e cb 2f 55 bd d7 01 9b bc
       -0.14217795 0.15736537 -0.052047532 -0.018921776
0002f0 c2 67 cd 3d e4 28 d9 bd b5 c5 0c be 3a 0a cd 3d
       0.10029556 -0.106035024 -0.13747294 0.10011716
000300 1b 30 ec bc e2 28 5d 3d 63 81 51 3d 53 1d 00 be
       -0.028831532 0.053994067 0.051148783 -0.12511186
000310 01 76 d8 3d db 1b b1 3b b2 c3 6d 3b d3 15 9c bc
       0.105693825 0.005404932 0.0036279974 -0.019053375
000320 49 1b c5 3d 08 12 fe bc 88 94 08 be 8e c2 15 bc
       0.09624345 -0.031014457 -0.1333791 -0.009140624
000330 f5 cc 28 be 71 4b 67 3e 9a f6 75 3e 34 02 94 3d
       -0.16484435 0.22587372 0.24019852 0.07226983
000340 91 d9 45 3d b1 8d 05 bd a2 6f 1f 3e 0c dc 19 3c
       0.04830319 -0.03260583 0.15569928 0.009390842
000350 79 ab 38 3c d3 14 57 bd 31 8b bc 3d 2d c2 73 bd
       0.011271351 -0.052510094 0.09206236 -0.059511352
000360 1b 00 10 3e f8 dd e8 3c e4 11 6c bd 95 da 2a 3e
       0.1406254 0.028426155 -0.05763425 0.16684945
000370 04 6d e9 3d b7 f0 2b 3e 8d 5d e1 3c 60 2c 2e 3e
       0.11397746 0.16791044 0.027510429 0.17009115
000380 7f f7 3c 3e 5d a6 07 be a1 82 96 3d cd 0a a5 3c
       0.18453787 -0.13247056 0.07349134 0.020146752
000390 60 3e 53 3d 85 7f 20 be 5e ca 20 3e 1b 73 f0 bd
       0.051573157 -0.15673645 0.15702197 -0.117407046
0003a0 b5 bd 84 bd 0d 3d ad bb ee 31 2a bd 8c 9f 8b 3e
       -0.06481496 -0.005286819 -0.041551523 0.27270162
0003b0 f1 59 80 3e a6 64 d5 bc 4e 36 03 be fe 48 2f 3b
       0.2506862 -0.02604897 -0.12813684 0.0026746388
0003c0 f3 d8 6f 3e a0 6c fe 3d 4c c5 66 3e 59 fc 36 3d
       0.23422603 0.12423062 0.225362 0.04467425
0003d0 d8 e9 89 3d 85 be c4 3d 3d 10 be 3d 6e 97 f1 3d
       0.06734055 0.09606651 0.09280441 0.11796461
0003e0 c7 dc 4d 3e 79 b1 1d 3e 47 4c 88 3d 2d 67 b9 3c
       0.20103751 0.15399732 0.06655174 0.022632206
0003f0 ab e4 b4 3d 21 6f cf bc 66 9b f6 bd d5 13 c0 bb
       0.088326775 -0.025321545 -0.12041359 -0.005861739

conv1.bias f4 [32]
000000 4b 37 59 bd 0c 87 da bd 57 23 87 bd a1 ac dd 3d
       -0.053031247 -0.106702894 -0.065985374 0.10823942
000010 e7 f9 dd 3d 50 4a 12 3d d4 df 2d 3c ed 21 a3 3d
       0.10838681 0.0357154 0.010612447 0.07965455
000020 2c 96 85 bd 56 a7 fd 3c 7a 76 03 bd 23 9f c7 3b
       -0.06522784 0.030963581 -0.03209541 0.0060919686
000030 5a d5 22 3d db 7e 97 3d 22 e3 c4 3d e6 09 89 3d
       0.03975425 0.07397243 0.09613635 0.06691341
000040 a4 6b df 3d 90 e4 ba bd 71 64 a7 3d c3 82 4d 3a
       0.10909203 -0.09125626 0.081734546 0.00078396144
000050 ce 6a 4b 3d 64 98 98 bd ec a3 54 3d de 03 84 bd
       0.049662404 -0.07450941 0.05191414 -0.0644605
000060 9c 99 7f 3b 5c dc 83 3d 14 46 14 bd 0c 5e 90 bd
       0.003900147 0.064385146 -0.036199644 -0.07049188
000070 ba 99 c5 3c 1b 93 ef 3c f6 94 a6 bd 8b 11 97 3c
       0.024121154 0.02924495 -0.08133881 0.018440982

bn1.weight f4 [32]
000000 e4 2a 68 3f 29 7a 89 3f 74 a4 6b 3f 95 59 5c 3f
       0.90690446 1.0740405 0.9204781 0.8607419
000010 36 d7 71 3f ef 6b 80 3f 21 26 69 3f b0 70 4f 3f
       0.9446901 1.0032939 0.91073805 0.8103132
000020 82 d1 59 3f 91 84 73 3f ba d7 67 3f 09 fc 89 3f
       0.8508531 0.95124155 0.9056355 1.078004
000030 f7 9a 82 3f fa 48 64 3f f0 4e 6f 3f 41 0a 56 3f
       1.0203542 0.89173853 0.93479824 0.83609396
000040 80 d5 6b 3f f9 3a 77 3f 9d 7f 50 3f a2 ea 6f 3f
       0.9212265 0.9657436 0.8144472 0.93717396
000050 16 94 86 3f 2c c1 73 3f f3 9d 73 3f 55 21 82 3f
       1.0513942 0.9521663 0.95162886 1.0166422
000060 08 e5 7c 3f d1 9c 6e 3f 6b 81 85 3f 5c 80 7c 3f
       0.98786974 0.9320803 1.043012 0.9863336
000070 ce cc 83 3f cc 81 65 3f b8 14 7c 3f e2 65 63 3f
       1.0296876 0.8965118 0.98469114 0.88827336

bn1.bias f4 [32]
000000 ec de 13 be cf 0a 83 be 8d d8 14 be f3 c1 56 be
       -0.14440507 -0.25594184 -0.14535733 -0.20972423
000010 77 1d 74 be 8c 03 51 3d 9d 25 5e ba 51 8b e3 bc
       -0.23839365 0.051028773 -0.0008474233 -0.027776392
000020 91 c2 57 3e 16 17 34 3d 0e 28 95 3d c1 8b de 3e
       0.21070315 0.04396733 0.072830305 0.43466
000030 f3 dc 73 bd 20 13 81 bd 44 31 26 3c 57 1a 1f be
       -0.059536885 -0.06302476 0.010143582 -0.15537392
000040 9c c4 b1 3e b3 e3 07 3d 1d 90 95 bd 97 fe 94 bc
       0.34720314 0.033176135 -0.07302878 -0.018187804
000050 3c 8c 03 3e 4f 94 e0 3d 63 16 00 3e 9e ff 86 3e
       0.12846464 0.109657876 0.1250854 0.26366895
000060 f6 d1 33 3d 97 9e 06 be 64 af 57 bd fb 4c 37 3e
       0.043901406 -0.13146435 -0.0526575 0.1790046
000070 6f 1a ce 3e aa eb 56 3d 2e a9 ad bd 16 f5 a1 3e
       0.40254542 0.05247084 -0.08479534 0.31632298

bn1.running_mean f4 [32]
000000 b4 36 87 3d 37 b9 4d 3e e0 83 f4 be d8 56 2e 3f
       0.06602231 0.20090185 -0.47756863 0.68101263
000010 6a 59 3f 3e d0 ea ba 3e aa 93 ad 3d e3 16 2a 3f
       0.18686453 0.36507273 0.0847543 0.6644117
000020 2c 46 b6 3d e6 0b c3 3e a4 80 35 3e ca bd bb 3e
       0.08900103 0.38095015 0.17724854 0.36668235
000030 cf 63 a7 3e c3 74 31 be 87 fc 0d 3e e3 22 47 3f
       0.32693335 -0.17329697 0.13865863 0.7778761
000040 d9 de 01 3f 5c ab 18 bf 42 3e 9f 3e 1c 5a 49 bf
       0.50730664 -0.59636474 0.31102186 -0.7865312
000050 d8 d2 a8 3e c4 2f 73 3d b2 34 9e 3e 94 1a 90 3e
       0.3297336 0.059371725 0.30899578 0.28145278
000060 88 1f 18 3e c9 bc b9 3e ff 43 16 3f 62 48 47 3e
       0.14855778 0.36276844 0.58697504 0.19461206
000070 5a 76 e6 3e b5 64 00 3e 79 51 83 be e7 ec 35 3e
       0.4501217 0.12538417 -0.25648096 0.17766152

bn1.running_var f4 [32]
000000 87 8c 83 3e 17 5e dc 3e 9f c8 ee 3e 79 59 72 3e
       0.2569315 0.43040535 0.46637437 0.23666944
000010 e1 f9 ab 3e 07 12 de 3e 20 91 cf 3e 7e 8e 8f 3e
       0.3358908 0.4337313 0.4054041 0.280384
000020 24 9d c1 3d 39 77 0b 3f fb aa 12 3e 87 01 b1 3e
       0.094538 0.54478794 0.14323036 0.34571478
000030 7a 94 ad 3e 09 3f 82 3e 66 8d 58 3e 07 d0 95 3e
       0.3390234 0.25438717 0.21147689 0.29260275
000040 b8 3a 85 3e 34 0d 0c 3f 52 e4 25 3e 3b 89 8a 3f
       0.2602136 0.54707646 0.16200379 1.082313
000050 92 23 18 3f e4 f3 39 3e b0 ea 8b 3e 7f e2 f1 3e
       0.59429276 0.18159443 0.2732749 0.47243115
000060 77 b1 22 3f c4 dd 6f 3e af 69 e0 3e 14 ec 40 3f
       0.6355204 0.2342444 0.4383063 0.75360227
000070 93 4e c4 3e 8b fa 2f 3e 99 c9 b4 3e 3a 87 2d 3e
       0.38341197 0.17185418 0.35310057 0.16946116

conv2.weight f4 [32, 32, 5, 5]
000000 7a 76 ff bc 6b 1b af bd b9 01 8b bc ab b8 8e bc
       -0.031184424 -0.085501514 -0.016968595 -0.01742204
000010 41 17 2c bd 9f 7d 43 3d d9 bb 3a 3d ad aa 59 3d
       -0.042014364 0.047727223 0.0455893 0.053141285
000020 35 c0 be 3b f1 59 72 3d 00 a0 38 3d d6 e6 ae 3d
       0.0058212527 0.059167806 0.045074463 0.08540122
000030 7c 84 03 3d 5f 8a ec 3c c2 c5 fe 3c 85 b0 ee bd
       0.03210877 0.028874574 0.031100158 -0.11654762
000040 a7 76 ac 3b ab 61 32 3d 80 32 1d bd 1e 62 81 bd
       0.005263168 0.043550175 -0.03837824 -0.063175425
000050 ef 22 64 3c c3 5f 47 bc 41 8e 10 3d d2 84 5c bc
       0.013924344 -0.0121688275 0.035291914 -0.013459401
000060 e4 47 fe bc 96 c4 95 3d 7f 03 3c bd 04 77 a5 bd
       -0.03104014 0.073128864 -0.04590177 -0.08079341
000070 30 8e 5b bd 0b e6 fc 3c f0 1f 69 bd 72 a7 82 3d
       -0.053602397 0.030871412 -0.056915224 0.06379594
000080 26 2d d5 3d 4b b3 41 3d 03 6a 1f bd 99 10 08 bd
       0.10409002 0.047290128 -0.03891946 -0.033218954
000090 54 39 33 bd 6b 9f 89 3c c8 1e 30 3e 19 c1 06 3e
       -0.043755844 0.01679965 0.17199242 0.13159598
0000a0 dd f9 0b bd 53 1e 5f bd c3 4c c0 bd 12 14 6f bd
       -0.034173835 -0.05447228 -0.09389641 -0.05836875
0000b0 b2 6d 91 3c a3 c8 70 3c 08 b6 46 3c 50 03 ba bc
       0.017752502 0.014696273 0.012128361 -0.022706658
0000c0 c9 1e a8 bd 77 fe cd bc 49 18 25 bd a0 76 14 bd
       -0.08208997 -0.025145752 -0.040306363 -0.036245942
0000d0 87 35 e5 bd 4e 10 a7 bd b4 46 d4 bc 14 91 97 3c
       -0.1119185 -0.08157407 -0.02591262 0.018501796
0000e0 eb 40 9f 3d 96 aa 85 3d a3 ea 0e 3d ce 54 bb bc
       0.07776054 0.06526677 0.034891736 -0.022867586
0000f0 03 54 ba 3c 5a de 2c 3d a3 23 98 3d 24 a1 f0 3d
       0.022745138 0.04220424 0.07428672 0.11749485
000100 24 64 9c 3c 96 59 d3 3c 30 f8 73 3d aa fa 00 3d
       0.01909072 0.025799554 0.059562862 0.031489052
000110 ee ec 56 bb 2c 7d 95 3d 6a e4 53 3d e9 2f dd bc
       -0.003279503 0.07299265 0.051731504 -0.027000384
000120 06 77 38 bc 28 ed ba bc 15 0b 99 3c cc fa f8 bb
       -0.011258846 -0.022818163 0.018682042 -0.0075982567
000130 ca 43 06 bd e7 d7 82 3c c1 6b d3 3c 9c d6 88 3c
       -0.032779492 0.01597209 0.025808217 0.016703896
000140 6b df d1 bc b7 31 4a 3d 46 66 ce 3d 36 74 3a 3d
       -0.02561923 0.049363818 0.10078101 0.045520984
000150 ec 34 91 bc b5 29 69 bd 3d db aa bd ad cb 43 3d
       -0.01772543 -0.05692454 -0.08342598 0.047801662
000160 7d 3e 1d 3d 89 3d 84 3d c2 2d 6a bd cb 94 3e bd
       0.03838967 0.064570494 -0.057172544 -0.04652862
000170 c5 8c b6 3a de 1f b8 3d f4 d1 18 3e c0 81 ba 3c
       0.0013927451 0.08990453 0.14923841 0.022766948
000180 e0 8c 8c 3c 77 b3 30 3d e2 c1 bf 3c 3c 21 ad bc
       0.017157018 0.0431399 0.02340788 -0.021134011
000190 28 90 89 bc a6 78 6e bd 35 cf ba bd b0 9c f2 bd
       -0.016792372 -0.058220528 -0.09121553 -0.11846292
0001a0 2b da 55 bd 3b 36 4d 3d 43 46 aa 3c e3 46 7e bb
       -0.052210014 0.050100546 0.020785457 -0.0038799576
0001b0 cf 28 92 bc da 89 3a bc 13 33 90 3d 3f 72 31 3d
       -0.017841725 -0.011385405 0.07040992 0.043321844
0001c0 db d1 0f 3d b4 68 fc 3c cb 94 39 3d 77 b0 10 ba
       0.035112243 0.030811645 0.045307916 -0.00055194594
0001d0 36 f5 23 3c 9f 1b eb 3c a7 84 19 3d 25 2f 51 3d
       0.010007193 0.028699694 0.037480023 0.05107035
0001e0 d6 a1 1b bd 17 9b 91 bd 87 04 3c bd f1 8b 5c ba
       -0.037996136 -0.07109659 -0.045902755 -0.0008413187
0001f0 59 08 2d bd 2f 3f 55 bd cc c2 82 3d 67 c5 1b 3c
       -0.04224429 -0.05206221 0.06384811 0.009507514
000200 11 a7 35 bc fc ee 49 bd 3f e3 ee bd c2 61 02 be
       -0.011087195 -0.04930018 -0.116644375 -0.12732604
000210 36 96 70 3c c3 00 8b 3c da 6b 1d bd d0 2d 5a bd
       0.014684251 0.016968137 -0.038432933 -0.053266346
000220 ad 01 19 bd b0 49 fd bc 79 6c 4c bc 87 86 fa bc
       -0.037355114 -0.030918926 -0.012477034 -0.030581726
000230 83 87 57 3d 71 39 63 3d 71 b6 0f bd ad cb 93 bc
       0.05261947 0.055474702 -0.0350861 -0.018041456
000240 d0 f6 b6 3c 94 b7 2e 3d 48 17 3e bc 3e c0 41 bd
       0.022334486 0.042655542 -0.01160223 -0.047302477
000250 ab d8 87 3b fc 58 8e 3c d1 ef fd 3b b2 ff b4 3d
       0.004145702 0.017376415 0.0077495356 0.088378325
000260 48 b2 9f bd 94 86 9c bb 59 08 d3 bc fd 0d 52 3b
       -0.07797676 -0.004776785 -0.025760816 0.0032051795
000270 fe 75 fa 3c fc fa 5e 3d 33 e4 24 3d ff 06 e0 bd
       0.030573841 0.054438576 0.04025669 -0.109388344
000280 96 60 a0 bd 09 f1 7a bc b4 54 de 3d 0b bd d9 3d
       -0.07830922 -0.015316256 0.108559996 0.1063176
000290 cb a3 02 bd 61 f3 4e 3c 4b af 63 3d 5e f7 86 bb
       -0.031894486 0.012631268 0.055587094 -0.004118844
0002a0 12 11 41 3d 70 4b 07 3e d4 68 8b 3a a5 1e bd bc
       0.04713542 0.13212371 0.00106361 -0.023085902
0002b0 09 cb ae bd 90 73 13 bd ef 3c f7 3c 4f db 25 3d
       -0.0853482 -0.03599888 0.030180423 0.040492352
0002c0 66 12 00 bc 4f 04 12 bd f5 e0 c8 ba d4 f9 7a bb
       -0.0078168865 -0.03564864 -0.0015325831 -0.0038295882
0002d0 36 99 ca 3b cd 53 2a 3d 9a 51 2f 3d 2c 0b 99 3c
       0.006182815 0.041583825 0.04280243 0.018682085
0002e0 36 5f 49 bd 78 92 e9 bc 77 33 80 3c e8 1b 05 3d
       -0.049163066 -0.028512225 0.01564954 0.032497317
0002f0 fc 6f 95 bb c7 bf b7 3c 1b 06 b4 3b e8 dc 3c 3d
       -0.0045604687 0.022430314 0.005493892 0.04610911
000300 82 87 2d 3d d3 c7 76 3d b1 ed 5c 3d 7d 1b 18 3d
       0.04236556 0.06024916 0.053937618 0.03713559
000310 45 19 3e bd 3b ad 44 bd ab 44 91 3a 90 d5 d5 3c
       -0.046410818 -0.048016768 0.0011083087 0.026102811
000320 7b ab 06 bc 2b 31 54 bd 1d f9 ca 3c eb 7a 49 3d
       -0.008219595 -0.051804703 0.02477699 0.04918949
000330 b9 96 00 3d c8 63 c1 bc fc 12 c1 bb 1a 83 28 3d
       0.03139374 -0.02360715 -0.0058921557 0.041140653
000340 38 8f f4 3d 78 77 75 bc 4d 93 8b bd 7f e5 86 bd
       0.11941379 -0.014982097 -0.06815205 -0.06586742
000350 16 52 4f bd d4 d2 a1 bd 1f 4a ee bc da b7 8d bd
       -0.050615393 -0.079015404 -0.029088078 -0.069198325
000360 7e e4 23 bd fd 8d 33 bd d2 79 2a be 21 25 1d bd
       -0.04001283 -0.043836582 -0.16648033 -0.038365487
000370 a6 f2 9a 3d 46 a4 1d 3d 2c 1e 6d bc d1 81 1a 3c
       0.07565813 0.03848674 -0.014472526 0.009430365
000380 1d 31 aa 3d 30 4c a0 bc a6 b6 d6 bd 9c 88 85 3c
       0.08310149 -0.019567579 -0.10484056 0.016300492
000390 e2 66 dc bc 32 f1 17 bd a0 18 73 bd 90 17 ff bc
       -0.026904527 -0.037095256 -0.059349656 -0.031139165
0003a0 df 66 4e 3d 07 fa bf 3c a9 1e 5c 3d 83 fb 4b bd
       0.050391074 0.023434652 0.053740177 -0.049800407
0003b0 d6 e3 77 bd 30 5c 8b bd 79 a5 94 bd 59 da 8d bd
       -0.060520016 -0.06804693 -0.07258124 -0.06926412
0003c0 7c 6e 61 3d b8 c0 0b bb 64 14 06 be d0 b2 d3 bd
       0.055037007 -0.0021324586 -0.13093716 -0.1033684
0003d0 90 e6 8d bc 58 af b2 3c a8 91 fd 3b 99 f6 dc bd
       -0.017321855 0.021812126 0.007738311 -0.10789222
0003e0 6d 15 4b bd 32 db b1 3b 41 d5 5e 3c 20 c7 62 3d
       -0.04958098 0.0054277414 0.013600648 0.05536568
0003f0 c2 a9 c4 bc 25 4c 8c 3c 4b 7d e6 bd 79 c0 84 bc
       -0.024006728 0.017126152 -0.112543665 -0.01620506

conv2.bias f4 [32]
000000 00 f2 b8 bb b0 e1 da 3c 46 98 13 3c 02 e5 88 3b
       -0.005644083 0.026718944 0.009008473 0.0041776905
000010 ee 14 bc 3b f9 62 9b bb 1b b1 be 3c c4 0d e3 bc
       0.0057397997 -0.004742023 0.02327781 -0.027716525
000020 a8 71 82 bc ee 71 07 3d f1 5c 85 b8 fe b3 01 3b
       -0.015923336 0.033067636 -6.359246e-05 0.0019791122
000030 d6 10 da 3c 41 c4 f5 3c 93 54 de bc 10 87 d9 3c
       0.026619356 0.030000808 -0.027139938 0.02655366
000040 2b 04 04 3c 68 0b f3 3b 7e 7b 04 3c 21 bc d0 bc
       0.008057634 0.007417131 0.008086083 -0.025480332
000050 c7 d0 bb 3c 63 83 01 3c ea 8b ee 3c 3a 69 2f 3b
       0.022926701 0.00790486 0.02911945 0.00267656
000060 e0 b9 e7 3c 69 99 00 3d 87 80 d4 bc b7 17 98 3c
       0.028286874 0.031396303 -0.025940193 0.018565996
000070 3e 39 e8 bc 13 84 8f 3a 41 8b de bc 54 5f 09 3d
       -0.028347608 0.0010949395 -0.02716601 0.033538178

bn2.weight f4 [32]
000000 85 44 80 3f 6f c9 77 3f ac d8 52 3f 9c b2 51 3f
       1.002091 0.9679174 0.82361865 0.8191316
000010 e5 74 7f 3f eb 81 78 3f b8 96 75 3f 07 86 83 3f
       0.9978774 0.9707324 0.95933104 1.0275277
000020 fa cb 8e 3f 07 06 78 3f 89 fb 56 3f d8 70 92 3f
       1.1155999 0.96884197 0.8397756 1.1440687
000030 74 a9 68 3f c2 b0 7d 3f c3 9f 88 3f 47 b3 82 3f
       0.90883565 0.99097836 1.0673755 1.0210961
000040 3c 32 7a 3f fe 35 79 3f 3d 73 77 3f 30 fd 7f 3f
       0.977329 0.9734801 0.96660215 0.9999571
000050 27 d8 6e 3f a3 b4 75 3f 00 d0 61 3f 22 5a 51 3f
       0.9329857 0.95978755 0.8820801 0.81778157
000060 a7 af 6e 3f f6 bb 50 3f 39 68 70 3f 81 ce 84 3f
       0.93236774 0.81536806 0.9390903 1.037552
000070 e7 e7 79 3f 71 9d 75 3f 0b b3 5f 3f 87 42 66 3f
       0.9761948 0.9594336 0.8738257 0.8994526

bn2.bias f4 [32]
000000 21 5d 0c be 03 b5 00 be d3 29 a1 bd 02 f1 f4 bd
       -0.13707401 -0.1256905 -0.078693055 -0.11960031
000010 24 a0 4b be 16 73 4d be c4 69 be bd a3 ad 58 be
       -0.19885308 -0.20063433 -0.09297517 -0.21159987
000020 13 14 1a be ad aa a6 bd 1d d6 e1 bd ef 07 54 be
       -0.1504672 -0.081380226 -0.11027167 -0.20706151
000030 b7 f0 4e be 15 ab d5 bd 87 13 58 be b2 09 13 be
       -0.20209013 -0.10433022 -0.21101199 -0.14359167
000040 f4 30 38 be ac 71 9f bd 77 89 07 be e3 05 40 be
       -0.17987424 -0.07785353 -0.13236032 -0.18752246
000050 0e 0a da bd a8 b1 14 be b6 fc b7 bd 74 ec ca bd
       -0.10646449 -0.14520895 -0.08983748 -0.09908381
000060 cb 06 02 be 49 52 23 be af 3b 47 be 73 ae 35 be
       -0.12697904 -0.15949358 -0.19456361 -0.17742328
000070 62 f5 21 be 7a 2a e8 bd e2 10 86 bd e2 6b 80 be
       -0.15816262 -0.11336227 -0.06546189 -0.25082308

bn2.running_mean f4 [32]
000000 f6 de 27 bf 83 58 4e bf 3c 05 0c be d8 cc bd 3f
       -0.65574586 -0.8060381 -0.13673872 1.4828138
000010 c8 25 63 bf 9f 8e 28 bf 4e 30 33 bf eb 13 4b bf
       -0.88729525 -0.6584262 -0.6999558 -0.7932727
000020 96 4d 9e bf 96 97 21 bf b8 af 3e 3e cc 8b e0 bf
       -1.2367427 -0.63121927 0.18621719 -1.7542663
000030 11 72 46 3f f4 28 61 bf bd 2c ef bf d3 00 cb bf
       0.775178 -0.87953115 -1.8685528 -1.5859627
000040 53 b1 2f bf f8 8b 27 bf 25 b2 46 bf 49 c9 76 3d
       -0.6862995 -0.6544795 -0.77615577 0.060250554
000050 df e6 84 be 00 23 5a bf 65 c6 3c be 9c 10 1e bf
       -0.2595739 -0.85209656 -0.18435057 -0.61744094
000060 76 77 7d bf b7 54 88 be eb a0 16 bf b0 93 9f bf
       -0.9901041 -0.26627132 -0.5883929 -1.2466946
000070 4a 41 0d bf 85 73 6b bf 29 ea 54 bf 24 39 1b 3f
       -0.5517775 -0.91973144 -0.831698 0.60634065

bn2.running_var f4 [32]
000000 56 94 90 40 55 a0 50 40 1b 13 1a 40 0a 91 5b 40
       4.5181074 3.259786 2.407416 3.4307275
000010 dc 2a 64 40 7a 78 50 40 dd 85 6d 40 8c dc 60 40
       3.565116 3.2573533 3.7112954 3.513461
000020 f2 9c 54 40 79 cc 7c 40 fe 83 2b 40 7e a2 77 40
       3.3220792 3.94998 2.6799312 3.8692927
000030 d9 cf 68 40 58 c2 2e 40 77 68 64 40 8d e1 84 40
       3.637686 2.7306118 3.568876 4.152533
000040 ec 79 8d 40 88 fc 55 40 40 50 83 40 25 5f 48 40
       4.421133 3.3435383 4.103546 3.1308072
000050 94 84 81 40 eb 1a 20 40 a6 e8 1c 40 08 12 2e 40
       4.047434 2.501643 2.4516997 2.7198505
000060 c1 e9 29 40 56 d9 15 40 19 60 39 40 e4 be 65 40
       2.6548922 2.3413901 2.8964903 3.589776
000070 6d 02 5b 40 4b c4 58 40 89 d0 1c 40 de d8 47 40
       3.422023 3.3869808 2.450228 3.1226115

conv3.weight f4 [64, 32, 5, 5]
000000 5c 3b 91 3c d8 44 63 3c d3 80 fd bd e6 7e b8 bd
       0.0177285 0.013871394 -0.12378087 -0.09008579
000010 9c d9 b8 bd 9e e4 03 3e b8 21 b0 3d ed 3b e4 bd
       -0.09025881 0.1288018 0.08600181 -0.111442424
000020 20 a9 88 bd 1f 79 a6 3b cb 6b 90 bc 66 8c 2e 3e
       -0.06672883 0.0050803567 -0.017629525 0.17045745
000030 26 9e 00 3e a7 92 c6 bc 00 c6 28 3d 79 60 7d bd
       0.12560329 -0.024239851 0.041204453 -0.06185958
000040 ea 61 62 bc e6 e8 82 bd a6 66 f8 3c 6a 38 18 bd
       -0.01381729 -0.06392078 0.030322384 -0.037163176
000050 f2 62 cc bd 60 00 40 3d 89 2a eb bb 00 0d c2 3d
       -0.0997981 0.046875358 -0.0071767014 0.09475136
000060 cb ce 02 bd f4 8d cb bd 92 0e e0 3d 4c 6f ce 3c
       -0.031935494 -0.09939185 0.10940279 0.025199555
000070 d5 0b bc 3c cb 1b b4 bd 25 53 84 bd 96 38 37 3d
       0.02295486 -0.087943636 -0.06461171 0.0447317
000080 f0 c5 80 3d 6a 27 ad ba 2e 0b c7 bd 00 61 e5 3c
       0.062877536 -0.0013210599 -0.09718929 0.028000355
000090 17 8b a2 3d f7 53 89 bd 16 ca 9c bc 49 33 21 be
       0.079366855 -0.06705468 -0.01913933 -0.1574222
0000a0 a8 2f a4 bc b1 c5 fe ba 12 ad 85 bc d9 96 8a ba
       -0.020042256 -0.0019437579 -0.016317878 -0.001057352
0000b0 4d f9 fd bd 19 cf 7d bc 12 6d 98 bd 43 ad 38 bc
       -0.12401066 -0.01549127 -0.074426785 -0.011271778
0000c0 b0 1c 62 bd 73 2f 19 3c f6 a3 85 3c 2c b4 d3 bc
       -0.05520314 0.009349692 0.016313534 -0.025842749
0000d0 22 34 24 3d e4 73 a3 3c 5e 5f 0d be 4f cd bd 3d
       0.04008878 0.019952722 -0.13805911 0.09267675
0000e0 e1 0e 48 3d 89 a9 95 3d ae a2 18 3e e7 9b 58 bd
       0.048842315 0.07307727 0.14905807 -0.052883055
0000f0 fa 07 ad bc a8 90 c8 3d 22 8d 74 3d 1d 8a c2 3c
       -0.021121968 0.09793216 0.059704907 0.023747498
000100 a6 aa 8c bd 56 b5 9e 3d 50 86 f1 bc 45 54 89 bd
       -0.06868486 0.07749431 -0.02948299 -0.06705526
000110 8a 6e b0 bd 63 c2 34 bd 38 91 2e bd 33 b0 2f 3d
       -0.08614834 -0.044130694 -0.04261896 0.042892646
000120 4f 2c 55 bc 2a 21 a4 3d 3f b0 9a b9 fc 47 c1 ba
       -0.013011052 0.08014138 -0.00029504483 -0.0014746184
000130 59 ca b4 3d 84 37 06 3d c0 43 09 bc 2e 1d 43 3d
       0.08827657 0.032767788 -0.008377969 0.04763525
000140 4c 30 5e bc 48 db a3 3d f6 11 00 be a0 33 15 bc
       -0.01356132 0.08000809 -0.12506852 -0.009106547
000150 27 2e 4a 3c 0c b4 d8 bd 9b 07 d9 bc 86 9a 04 bc
       0.012340105 -0.10581216 -0.026492884 -0.008093482
000160 88 d5 39 bd 4d 69 d3 bd ed a1 8e bd 40 e7 a7 3c
       -0.045369655 -0.10322819 -0.06964479 0.02049601
000170 9b b3 2e bd fb d0 84 3c a7 dd 52 3b 3c 0a bf 3d
       -0.042651754 0.01621293 0.0032175572 0.09328124
000180 1e 74 80 3c 82 be 35 bd fb d0 e6 bd 9c f5 e5 3b
       0.015680369 -0.044371136 -0.112703286 0.0070178043
000190 f2 79 04 be 66 8e 58 bd 5b 74 6c bd f4 d6 97 3c
       -0.12937143 -0.052870177 -0.057728153 0.018535115
0001a0 a8 97 8c bd 27 96 df bc 9d 15 2c bd d7 f5 71 bc
       -0.06864864 -0.027293278 -0.0420128 -0.014768085
0001b0 f7 34 b7 bd 66 9a 8d 3c 52 68 66 3d c6 08 20 3d
       -0.08945649 0.017285537 0.05625183 0.039070867
0001c0 ea 09 a2 3d d4 9c 4b 3d 11 75 82 3d 02 67 d2 3d
       0.07912047 0.04971011 0.06369985 0.102735534
0001d0 9f c3 ad 3d c1 11 91 bd 14 3d f9 bd fe 02 3b bd
       0.084845774 -0.070834644 -0.12169853 -0.04565715
0001e0 f1 3b d3 3b 22 8c 9b 3d f3 c9 12 bd 2b 51 9a bc
       0.0064463546 0.075950876 -0.035837125 -0.018837532
0001f0 7a 8b 56 bc 83 c6 35 3d fa 96 8b bd 6b 9f 6e bc
       -0.013094777 0.04437877 -0.06815906 -0.014564375
000200 96 69 2c bc 9e f9 77 bd 93 00 30 bd c8 f6 b1 bd
       -0.0105232205 -0.060540788 -0.042969298 -0.08689648
000210 9c 17 ed 3b 88 e7 30 bb 16 21 99 bd 32 79 ff bb
       0.0072354805 -0.0026993472 -0.07477014 -0.00779643
000220 72 2e 1e 3e 68 d3 3c bd e0 96 7e bd d4 24 a4 bd
       0.15447405 -0.04610005 -0.062155604 -0.08014837
000230 6a a2 a0 b9 2b 6c ae 3c b6 dc b0 bc 73 74 24 3d
       -0.00030638586 0.021291813 -0.021589618 0.040150117
000240 e6 fc b8 3c 7e 79 c8 bd d9 f2 fe bb 82 33 f6 bc
       0.022581529 -0.09788798 -0.0077804145 -0.030053858
000250 b0 ac bc bc 26 f8 62 bd 41 f6 27 3c 25 39 65 bd
       -0.023031563 -0.055412434 0.010251583 -0.0559627
000260 e3 f9 29 bc 16 87 53 3d 86 9a 3a 3d 1b e7 95 3d
       -0.010374519 0.0516425 0.04555752 0.073194705
000270 d6 92 98 bd 8c 41 8e b9 78 82 04 3d b4 cc d0 3c
       -0.07449882 -0.00027133187 0.032350987 0.025488235
000280 d8 11 30 3d 9f 4b bd 3c 79 89 4e 3e 61 d4 f9 3d
       0.042985767 0.023107348 0.20169629 0.12198711
000290 e6 ae 9f 3d 6d 70 35 bc 2e 2b 18 3c 47 63 c0 bd
       0.07797031 -0.011074168 0.009287639 -0.09393936
0002a0 f4 19 10 3c 56 f0 a1 bb f8 d4 e3 3c c4 e8 c5 3b
       0.00879525 -0.0049419804 0.027811512 0.0060397107
0002b0 12 af 62 bb af 1a 92 bd 80 a6 0b bd 3b c7 b7 bd
       -0.0034589213 -0.07133996 -0.034094334 -0.08973547
0002c0 4a b5 05 bc c6 b2 06 bd 7c c3 31 3d ee 29 06 3d
       -0.008160898 -0.032885335 0.04339932 0.03275483
0002d0 17 14 98 3d ef 19 78 3d d7 d6 fb 3c 4f c6 85 bc
       0.07425707 0.060571607 0.030742092 -0.016329912
0002e0 59 8e c0 bd 73 67 39 3b 8c 5b 74 3d 67 ce 14 3e
       -0.09402151 0.002829042 0.05965762 0.14531861
0002f0 70 2d 0e bd 15 67 f2 bd 7e 8e 05 bd f6 19 2f 3d
       -0.0347113 -0.118360676 -0.032606594 0.042749368
000300 63 94 57 3d 05 a6 e7 bc c3 38 34 bb 29 97 3f bb
       0.052631747 -0.028277406 -0.0027499653 -0.0029234386
000310 be 28 a6 bd 9d e9 b6 3b 4d 3a 1a bd ce 04 f7 3d
       -0.0811324 0.005582048 -0.037653256 0.12061463
000320 f5 85 9e 3c 22 47 8c 3d 05 24 0f 3d 04 a3 88 3d
       0.019350985 0.06849505 0.03494646 0.06671718
000330 c4 e1 1c bb 04 2a f5 3c 3b 57 db 3c 2f b4 93 bd
       -0.0023938278 0.029927261 0.026774993 -0.07212102
000340 74 60 c5 bd e9 39 5f 3d d5 bf 83 bd 1d bf fb 3c
       -0.096375376 0.054498587 -0.064330734 0.030730778
000350 1b 47 5c bd 2e 4f 02 bd 4f 0e 96 3c 8d 22 4c 3c
       -0.05377875 -0.031813793 0.01831737 0.012459409
000360 dc b6 03 bd 5b 8e 58 bb cf 78 ad bd d1 9c ed bc
       -0.03215681 -0.0033043835 -0.08470308 -0.02900544
000370 26 fd 71 bd fa b4 0a bd 1f e7 72 bd 54 20 0d 3d
       -0.05907931 -0.033864 -0.059302446 0.03445466
000380 ad 65 a2 bc 80 b7 bb bc c2 1d 74 bd 2c d0 b9 3d
       -0.019823873 -0.022914648 -0.05959869 0.09072909
000390 a6 80 bf bc d0 ee cd 3b 2b 34 c1 3c 87 97 b2 bd
       -0.023376774 0.006284572 0.023584446 -0.08720308
0003a0 fe 36 28 bc 14 ab f8 3d 8d 7a 50 3d 47 cd 27 3d
       -0.010267017 0.121420056 0.050898124 0.040967252
0003b0 d5 c7 d4 bd c7 57 7c bd 29 a1 e7 3c a8 1b 8e 3d
       -0.103896774 -0.06160715 0.02827509 0.06938869
0003c0 31 a7 33 bd 46 a7 0a bd ab 8e f4 3d 74 ab 31 3d
       -0.043860618 -0.03385093 0.11941274 0.0433764
0003d0 0e c0 7d 3d 64 e1 d3 bc 97 88 eb 3b 0f 68 8e bb
       0.061950736 -0.02586431 0.0071879136 -0.004345901
0003e0 1d e3 89 3d 58 f1 95 bd 30 10 72 3d 62 e2 fc 3c
       0.067327715 -0.07321423 0.05909747 0.030869666
0003f0 10 7f 91 3b 2c f1 5a bd 4a 24 3d 3c 4e e9 1d 3d
       0.004440196 -0.053452656 0.0115442965 0.038552575

conv3.bias f4 [64]
000000 ee 48 69 bc 53 a2 5d bc 4f 60 bb bc f5 95 e4 3a
       -0.014238579 -0.013527471 -0.022873072 0.001743971
000010 16 d2 07 bb 00 90 44 bc 2f df 56 3c e6 17 05 3d
       -0.0020724586 -0.011997223 0.013114735 0.032493494
000020 9d 0b 9e 3c a7 30 95 3c 0d 27 86 bc e1 58 f5 3c
       0.019292647 0.018211676 -0.016376043 0.029949607
000030 32 96 86 3c 10 2f 76 3b 4d df ff 3c 5f 9f b6 bc
       0.01642904 0.0037564673 0.031234408 -0.022292791
000040 f4 13 f5 bb f4 a9 de 3c dd fb 05 bb af 7d b7 bc
       -0.0074791852 0.02718065 -0.0020444312 -0.022398798
000050 08 43 ff bc f9 92 38 3c 6c 76 99 3c b8 9a d2 bc
       -0.031159893 0.01126551 0.018733226 -0.025708541
000060 52 7b c8 bc bd 58 95 3c 79 bd 7a 3c 10 cf c2 3c
       -0.024472866 0.01823079 0.015303963 0.023780376
000070 81 5d 30 3c 98 f4 d3 3c 1e f0 82 3c b2 cb 34 3c
       0.010764481 0.025873467 0.015983637 0.011034893
000080 6a bc f2 3c f5 35 85 3c ae 97 f3 bc 50 87 8e bc
       0.029630858 0.01626108 -0.029735412 -0.017398506
000090 f8 f8 6a 3b 0a f9 4c 3b 61 98 d6 3c fc bc 9f bc
       0.0035853963 0.0031276369 0.026195707 -0.019499294
0000a0 14 cd 00 bd f6 6a 09 3d 42 20 56 3c e2 6f a4 3c
       -0.031445578 0.03354927 0.013069214 0.020072881
0000b0 64 a4 63 bb 9a 96 01 3c ee a1 ca bc 41 08 6b bb
       -0.0034735436 0.007909441 -0.024735417 -0.0035863074
0000c0 56 c0 09 bd 2f e2 ec 3b 48 d8 ac 3c 5f 7d 63 bc
       -0.03363069 0.0072291116 0.021099225 -0.013884871
0000d0 db 47 b8 ba 8c 91 8f 3c ec 03 cc bc 4e c6 72 bb
       -0.00140595 0.017525457 -0.024904214 -0.0037044468
0000e0 f0 90 d5 3b 87 e5 c9 bb f9 47 af 3a bc 93 bc bc
       0.006517522 -0.006161395 0.001337289 -0.023019664
0000f0 ab 30 48 3c 01 67 c5 3c 2f a9 73 3c c8 5a cb 3c
       0.012218635 0.024096968 0.0148718795 0.024823561

bn3.weight f4 [64]
000000 f2 ed 9a 3f 93 18 9a 3f 3f 45 97 3f ae 3d 9a 3f
       1.2103865 1.203875 1.1818007 1.2050073
000010 3a 7f 92 3f ee f3 93 3f aa 66 93 3f 10 04 9e 3f
       1.1445076 1.1558816 1.1515706 1.234499
000020 3c 8e 9c 3f e5 64 96 3f 5c c7 96 3f c1 92 8e 3f
       1.2230906 1.174954 1.177959 1.1138536
000030 b4 1a 98 3f 7b f9 93 3f cd 79 97 3f a2 73 95 3f
       1.1883149 1.156051 1.1834046 1.1675913
000040 b1 e6 9b 3f aa 03 93 3f 2e c7 9b 3f 24 2c 8f 3f
       1.2179776 1.1485493 1.217016 1.1185346
000050 87 58 98 3f 70 cf 9e 3f 77 7a 9a 3f 17 6c 96 3f
       1.1902016 1.2407055 1.2068623 1.1751736
000060 58 74 8f 3f db a0 93 3f d8 db a0 3f ab ef 9d 3f
       1.120738 1.1533464 1.2567091 1.2338766
000070 70 a6 99 3f 63 ce 95 3f 9c 61 9c 3f dd 1e 91 3f
       1.2003918 1.1703609 1.2217288 1.1337544
000080 08 c9 9a 3f 0c 15 93 3f b8 1e 9a 3f 76 51 91 3f
       1.20926 1.1490798 1.2040625 1.1352985
000090 64 00 97 3f db 77 9d 3f f2 f2 9b 3f ef 25 96 3f
       1.1796994 1.2302202 1.2183516 1.1730326
0000a0 36 e6 9e 3f 75 06 96 3f 6e ef 95 3f c1 dd 9c 3f
       1.2414005 1.172072 1.1713693 1.2255174
0000b0 2b 37 9a 3f 89 24 97 3f 2f 1f 95 3f 1a 87 92 3f
       1.2048086 1.1808025 1.1650141 1.144748
0000c0 3b 98 a2 3f 4d b8 99 3f 61 1b 97 3f 7b 86 9a 3f
       1.2702707 1.2009369 1.180523 1.207229
0000d0 ba ae 93 3f 66 95 91 3f 1b 7a 98 3f 81 c3 9b 3f
       1.1537697 1.1373718 1.1912264 1.2169038
0000e0 e2 af 95 3f 37 de 97 3f 8a af 96 3f c3 ea 96 3f
       1.16943 1.186469 1.177232 1.1790394
0000f0 26 91 a6 3f 57 73 9c 3f 75 cd a4 3f c9 1a 9f 3f
       1.3013046 1.2222699 1.28752 1.2430049

bn3.bias f4 [64]
000000 ce 66 1e be ee ce c1 bd 8a 5d 34 be 6c 2a 1a be
       -0.15468904 -0.09463297 -0.17613807 -0.15055245
000010 0c 0c 2b be 07 76 15 be 66 06 12 be cd 47 40 be
       -0.16703814 -0.14595805 -0.14260253 -0.1877739
000020 76 96 27 be b0 5c fd bd b6 6a 02 be 7e da 11 be
       -0.1636599 -0.12371194 -0.1273602 -0.14243504
000030 74 f5 35 be f4 18 d7 bd 3b db 05 be b4 8c 4a be
       -0.17769414 -0.10502806 -0.13071911 -0.19780236
000040 31 93 35 be e4 4a 38 be aa 82 09 be db 86 b4 bd
       -0.1773193 -0.17997319 -0.1342875 -0.08814784
000050 6b b6 b8 bd e3 01 30 be a9 69 61 be db 45 1a be
       -0.090191685 -0.1718822 -0.22012962 -0.1506571
000060 ba 98 8b bd b7 90 58 be ce 7f 63 be 64 16 bb bd
       -0.0681624 -0.21148954 -0.22216722 -0.0913513
000070 01 e7 23 be c4 bf 59 bd fe 86 e4 bd f0 7b a0 bd
       -0.1600609 -0.053161398 -0.1115856 -0.07836139
000080 15 48 0d be 08 bb 36 be 45 24 72 bd 8f bc fb bd
       -0.13797028 -0.17844784 -0.05911662 -0.12291824
000090 66 47 3b be 41 58 25 be c7 60 f2 bd 68 61 48 be
       -0.18288955 -0.16146947 -0.11834865 -0.19568408
0000a0 66 73 49 be ba 05 21 be df be 21 be 55 18 26 be
       -0.19672927 -0.15724841 -0.15795468 -0.1622022
0000b0 68 4b 04 be ea ed 27 be 42 19 ff bd 29 d2 38 be
       -0.1291939 -0.16399351 -0.124559894 -0.1804892
0000c0 81 06 02 be 7b 14 05 be de 6d d2 bd 6d ff 22 be
       -0.12697794 -0.12996094 -0.10274862 -0.1591775
0000d0 ef c3 e1 bd 4c ce ab bd 5e 09 18 be d4 dd e7 bd
       -0.110236995 -0.083889574 -0.14847323 -0.11321607
0000e0 af b5 42 be e7 16 1b be 73 f4 3c be d1 3d 09 be
       -0.1901462 -0.15145455 -0.18452625 -0.13402487
0000f0 9b 63 83 be 6b 11 e6 bd d0 40 66 be bb fe 54 be
       -0.2566193 -0.11233791 -0.22485662 -0.20800297

bn3.running_mean f4 [64]
000000 b9 20 bc 3e 99 a0 40 bf fb 81 b0 be 1c 91 a3 be
       0.36743715 -0.7524505 -0.34474167 -0.31946647
000010 d0 a5 9a bd 15 08 14 bf 67 4c 70 be 71 ab 43 3d
       -0.075511575 -0.5782483 -0.23466645 0.04777092
000020 51 57 45 bf 45 39 d4 be 04 b2 20 bd 58 bb 01 3e
       -0.7708636 -0.41449943 -0.03923227 0.12669122
000030 b1 f7 7b 3e a0 c4 ef 3e 08 5e 03 be 25 44 cd bd
       0.24606206 0.468297 -0.12828839 -0.10022763
000040 54 ff a7 3d 52 75 9a 3e f1 f0 64 be d8 6c ae 3c
       0.08202997 0.30167633 -0.22357537 0.021292135
000050 3a c4 4e be 8f 2a 90 be b5 db b9 be 27 66 98 be
       -0.20192042 -0.2815747 -0.36300436 -0.29765436
000060 a5 c0 23 be 8e 95 48 3f 4a ea bc be a9 a2 06 bf
       -0.15991457 0.783532 -0.36897498 -0.5259195
000070 62 8f b9 3c 7f 19 74 be 1a 7a 14 3e ce 60 60 3f
       0.022651378 -0.23837851 0.14499703 0.8764771
000080 7b 91 f8 be 38 21 6b 3f f5 cd 80 bd c6 b2 10 3f
       -0.48548493 0.9184756 -0.06289283 0.56522787
000090 ff 9e 94 be ac 8c e2 be 20 59 b9 3e 23 33 82 3d
       -0.29027554 -0.4424795 0.3620081 0.0635741
0000a0 ac cc d7 bd f3 61 10 be 52 16 1d be c9 1d 96 3e
       -0.10537085 -0.14099865 -0.15340546 0.293196
0000b0 91 9d 68 3b 4e 7d 42 be b1 fe e2 3e 93 89 cd 3e
       0.0035494308 -0.18993112 0.4433494 0.40144023
0000c0 90 9d 20 3e 75 2a 76 39 5c e2 6e 3e da 8c 37 be
       0.15685105 0.00023476205 0.23328537 -0.17924824
0000d0 0b 4f 63 be 06 d1 6c 3e 5a 1f 8a 3d 2d ce d6 bd
       -0.22198121 0.23126611 0.06744261 -0.10488544
0000e0 71 2f 49 3e 8d 8d cc 3e 36 ac 3d be ff bf bb 3e
       0.19647004 0.39951745 -0.18522725 0.3666992
0000f0 02 26 f4 be cf 00 4a be de d1 e7 3e 7b e1 e1 bd
       -0.47685248 -0.19726871 0.45277303 -0.11029335

bn3.running_var f4 [64]
000000 e2 28 f6 3e 5b 47 19 3f bb 48 c9 3e 8f 9c 31 3f
       0.48078066 0.59874505 0.393133 0.69379514
000010 df 7d ca 3e 9e 37 fe 3e ab c0 19 3f 33 19 fc 3e
       0.39549157 0.49651808 0.60059613 0.49237975
000020 a3 c2 03 3f dd 27 e5 3e 51 65 d8 3e 70 a4 bc 3e
       0.5146887 0.44756976 0.42264798 0.36844206
000030 30 17 14 3f bb 25 de 3e be 14 f8 3e 6f 86 20 3f
       0.5784788 0.4338816 0.48453325 0.6270513
000040 ef 89 fb 3e 47 65 fb 3e 06 8e fd 3e 91 9d b2 3e
       0.49128672 0.49100706 0.49522418 0.3488584
000050 1a ac 0d 3f 2a c7 1e 3f 17 53 1d 3f 6a ea d7 3e
       0.5534073 0.6202265 0.6145491 0.4217103
000060 6a c7 d6 3e 09 48 08 3f 4f d8 5b 3f 95 d1 00 3f
       0.41949016 0.53234917 0.85876936 0.50319797
000070 5f 07 02 3f d2 cb 1a 3f d4 3d cd 3e 8d e2 fe 3e
       0.507925 0.60467255 0.40086234 0.4978222
000080 59 a9 eb 3e ee 08 13 3f 5b fb 10 3f 44 ea 10 3f
       0.4602764 0.574355 0.5663354 0.5660746
000090 19 9a c4 3e bd ce 08 3f ca 5a 00 3f d3 ae 17 3f
       0.38398817 0.5344046 0.50138533 0.59251136
0000a0 cc ee 05 3f 51 cf f4 3e ae f7 d1 3e df 71 f8 3e
       0.523175 0.4781442 0.41009277 0.48524377
0000b0 c7 7b c3 3e 04 41 cc 3e e0 ce ec 3e e4 0c f2 3e
       0.38180372 0.39893353 0.46251583 0.4727546
0000c0 ff 79 02 3f 9c f9 01 3f a8 02 07 3f bb 42 fa 3e
       0.509674 0.507715 0.5273843 0.48879036
0000d0 89 c4 a9 3e 0e 82 dc 3e 34 98 0b 3f 59 6a d5 3e
       0.33157757 0.43067974 0.5452912 0.416827
0000e0 77 14 24 3f 33 f3 0b 3f 4b 32 1b 3f ba 3d f5 3e
       0.64093727 0.5466797 0.60623616 0.47898656
0000f0 03 e2 0e 3f df b5 0b 3f b6 64 1d 3f 60 18 11 3f
       0.55813617 0.5457439 0.614818 0.5667782

linear1.weight f4 [64, 1024]
000000 41 31 89 3c 8b c3 5e bd af 14 c3 3b ac 60 ef bb
       0.016747119 -0.054385703 0.0059533934 -0.0073052254
000010 1b 77 48 3d c3 3d ec 3c e5 5b a9 3a b2 76 e7 3c
       0.048941713 0.028838044 0.0012921063 0.02825484
000020 25 39 94 bd 15 6d 58 3c db 68 cc 3c 8b 99 b1 3b
       -0.07237462 0.013209601 0.024952343 0.005419915
000030 82 5c f5 bc b8 3b da 3b b8 65 69 bc 99 bf 0b bc
       -0.029951338 0.006659951 -0.014245443 -0.008529567
000040 a5 2b c5 bc 8b ea da 3b 47 f0 fd 3c 77 22 a2 3b
       -0.024068663 0.0066807917 0.030998362 0.004947956
000050 70 45 00 bd 52 34 be 3c 32 0c 5f 3c 8a 7a 21 bd
       -0.03131622 0.023218308 0.013613747 -0.039423503
000060 21 ac 86 3c 3c 7f 00 bd 45 7d a4 bc d8 0e 38 bd
       0.0164395 -0.03137134 -0.020079264 -0.04493603
000070 bd 77 8a 3c cd 9a f2 bd ac f3 c2 bd 23 c0 a9 3c
       0.016902799 -0.11845932 -0.09519133 0.0207215
000080 82 29 84 3d 50 2c f4 bc 80 16 f2 3c ca 32 a0 ba
       0.064532295 -0.029806286 0.029551744 -0.0012222168
000090 20 2d 28 bd 94 cc 12 3d 75 2e b3 bc 33 89 74 3b
       -0.04105866 0.035839632 -0.021872738 0.0037313222
0000a0 9c 22 87 3c 86 f4 3d 3d d7 a5 a3 bc 8a 22 87 3c
       0.016495995 0.046375774 -0.01997654 0.016495962
0000b0 ab 79 8b bc 90 1b 69 3d a3 85 db 3c 0c cf c2 3c
       -0.01702579 0.05691105 0.026797121 0.023780368
0000c0 d7 05 dd 3c 45 80 14 3d 31 c1 4f 3d a2 b0 4b 3c
       0.026980324 0.03625514 0.05072135 0.012432249
0000d0 0a c7 ca 3d 40 18 a9 3d 72 db 01 3d ad 8e 0b bd
       0.09901245 0.082565784 0.03170342 -0.034071613
0000e0 42 55 99 3d f9 a1 9c 3d a6 31 63 3d dd 07 12 bd
       0.07486965 0.07648081 0.05546727 -0.03565203
0000f0 b2 d7 9d 3d 7a 40 63 3d c5 70 c3 bc e6 64 84 3a
       0.07707156 0.05548141 -0.023857484 0.0010100871
000100 c2 01 0c bb 62 dc f6 bc f4 2a b0 bc 8a 3f dd 3c
       -0.0021363352 -0.030134384 -0.021504857 0.027007837
000110 cc 07 2a 3d e7 04 00 bc 0c 8a 8d 3d 28 ef 3b 3b
       0.041511342 -0.007813669 0.06911096 0.0028676484
000120 65 bd 2d bc 3b a4 cc 3c 85 bd c0 bb 6a 00 44 3d
       -0.010604237 0.024980655 -0.0058819675 0.047851957
000130 ff 51 47 bd 8e cc 3b 3c 8d 38 01 3c 85 5f 02 3c
       -0.048662182 0.011462344 0.007887018 0.007957344
000140 10 2f 23 3d 96 fe 9f bc 84 28 c3 3c 21 32 d8 3a
       0.039839804 -0.019530576 0.02382303 0.0016494432
000150 1f 28 cf bc 7f 61 1f bd 1c f0 3f bc 01 19 1e 3d
       -0.025287686 -0.03891134 -0.011714961 0.038598064
000160 f0 6b 92 3d e1 59 8a 3d 81 ee 82 bd 73 9e d1 3c
       0.07149494 0.06755424 -0.06393147 0.02558825
000170 04 54 06 bd f5 6f 9e 3c 06 4b 9b bc e1 75 4c 3d
       -0.032794967 0.019340495 -0.018956672 0.049917106
000180 17 9d 27 3d 9e e2 4d 3b 13 84 d2 3b 7c f7 38 3b
       0.040921297 0.0031415592 0.006424436 0.0028223684
000190 ad 9c 1c bc 02 52 29 3d 44 33 2e bd 8f a4 a3 bc
       -0.009558839 0.041337974 -0.04252936 -0.019975929
0001a0 e0 bd 9c bc be 42 2f 39 6e 65 85 bd bc 54 a0 3d
       -0.019133508 0.00016714164 -0.06513487 0.07828662
0001b0 60 41 73 bc 85 16 37 bd 5b ee 52 3d e6 58 42 3d
       -0.01484713 -0.04469921 0.051496845 0.04744806
0001c0 06 ed 17 3d 57 77 4f 3b f6 d1 aa 3d ce 53 90 3d
       0.037091278 0.0031656825 0.08340828 0.070472345
0001d0 f1 8d b8 3c ae 2b c4 3b cf db 94 3b 8e 5c 36 bd
       0.02252862 0.0059866523 0.004542805 -0.04452186
0001e0 bf a4 1e bc 08 b9 e4 3d 1b 6f 04 bb 34 d8 37 bc
       -0.009682833 0.111681044 -0.0020207826 -0.01122098
0001f0 d2 b7 9f 3d 58 47 33 bc 6b d0 06 3c 62 2e 2b 3d
       0.07798733 -0.010942303 0.008228402 0.04179228
000200 13 e7 ac 3c 2d ef dc 3c d3 37 06 bd 8b 53 3b 3b
       0.021106279 0.026969517 -0.032768082 0.002858373
000210 c3 07 9b bd a6 c0 9a 3d 39 5d bf bb d6 61 32 bd
       -0.0756984 0.07556276 -0.0058399704 -0.043550335
000220 11 e9 39 bd d5 58 75 3d 6d ef c0 3c 6c d3 69 3d
       -0.045388285 0.05989917 0.023551667 0.057086393
000230 a4 04 11 bd 5c db fc 39 bc bf 7a 3d 19 80 27 3c
       -0.035404816 0.0004822862 0.06121801 0.010223412
000240 f5 60 06 bc d4 19 57 bd 31 2d 28 3d 32 fa d3 3c
       -0.008201827 -0.052514866 0.041058723 0.025876138
000250 7a 5a 22 bd 19 68 13 3d 3d 38 24 bd cf f0 f1 37
       -0.039637066 0.035987947 -0.040092696 2.8841574e-05
000260 08 9f 0d 3d bc b2 1e bd 7d af f3 bc 4e 85 47 bd
       0.034575492 -0.038744673 -0.029746765 -0.048711114
000270 e1 f5 08 bb 03 1f ec 3c 85 6a 74 3a 35 0d c7 bc
       -0.0020898508 0.028823381 0.0009323734 -0.02429829
000280 2b 2b 5a 3d ea 70 b4 3c 17 99 62 bd b0 e8 eb 3c
       0.053263824 0.022026498 -0.05532178 0.028797477
000290 ff 3a 74 bd 60 50 e3 bc 0c 90 52 bd 9c 18 ab 3c
       -0.059626576 -0.027748287 -0.051406905 0.020885758
0002a0 7d 75 7d bc c0 3e 94 3c cb 3c 3d bd 65 eb 14 3d
       -0.015469906 0.018096328 -0.046200555 0.036357302
0002b0 5b 4b 78 bc 3e f3 6b 3d 06 ff 00 3d f5 14 94 bd
       -0.015154685 0.05760502 0.03149321 -0.0723056
0002c0 82 4e 72 3d df e4 35 3d 93 4d 61 bc 90 15 07 3d
       0.059156902 0.04440772 -0.013751405 0.032979548
0002d0 75 8f ce 3c 25 5e 78 3d ab 8c 15 3d 91 71 58 3c
       0.02521489 0.06063666 0.036511105 0.01321067
0002e0 a0 78 b2 3b 22 25 11 bb 58 87 58 3c ed 62 c4 3c
       0.0054465085 -0.0022147377 0.013215862 0.023972953
0002f0 10 da 00 3d 92 f4 93 bc 17 20 6a bd e0 67 e8 bc
       0.03145796 -0.018060956 -0.05715951 -0.028369844
000300 52 a5 7f bc d2 5d 83 3c 9c 0d 32 3d e5 e1 60 bd
       -0.01560338 0.016035948 0.04347001 -0.05490293
000310 c7 79 de 3c e9 dc e9 3d 05 cb b6 3d 21 6f 8b bd
       0.027157677 0.114190884 0.08925442 -0.068083055
000320 f7 0e e3 3c fd d5 b9 3a 0f 25 79 bd cc e1 38 bd
       0.027717097 0.0014178153 -0.060826357 -0.04513721
000330 01 14 23 bb c2 db 51 3c 12 fb fa bc 5c c1 ef bc
       -0.002488375 0.012808742 -0.030637298 -0.029267006
000340 43 37 30 3d 52 2e 0c 3d bc 2a 85 bc 44 26 a8 3c
       0.04302145 0.034223862 -0.016255729 0.020526059
000350 eb 52 84 3d c3 5a 16 3d ff 43 4e 3c 08 35 da bc
       0.06461128 0.03670765 0.012589454 -0.026636615
000360 1b cc 83 3a 8d 3a 0a 3a 3e 6e 43 3d 70 11 b1 3b
       0.0010055335 0.0005273007 0.047712557 0.00540369
000370 3b f9 ad 3c 61 09 5b 3d a6 34 22 3c c6 2b e4 bb
       0.021237006 0.05347574 0.009900248 -0.006963226
000380 e6 94 c4 3b 51 98 59 3c 5c 99 04 3b 07 c2 dd 3c
       0.0059991954 0.013280944 0.002023301 0.027070059
000390 bc 68 d9 ba 45 93 7f bd ad 3f 1b bb 4f 61 98 3d
       -0.0016586999 -0.062396307 -0.0023689077 0.07440435
0003a0 40 67 b5 bc 61 9d 53 3c dd 95 b8 bc 3b d9 7a 3c
       -0.02214396 0.01291594 -0.022532398 0.015310581
0003b0 89 0d 17 3d 1f ed 27 3d 0f 8f bd 3c 9e e4 5c 3b
       0.036878143 0.04099762 0.023139505 0.0033705602
0003c0 3e 7a f5 bc 42 33 cf bd 3c 8e fd 3b cb ed 23 3c
       -0.029965516 -0.101171985 0.007737903 0.010005425
0003d0 ce 87 8f 3c eb a5 f1 bc 18 9f 67 bd 89 6f 95 bb
       0.017520811 -0.029498061 -0.056548208 -0.004560415
0003e0 79 d9 c1 3c 08 11 b6 bb 50 10 d1 3c 16 73 27 bd
       0.02366327 -0.0055562295 0.025520474 -0.04088124
0003f0 09 95 1e 3d d7 1f 84 bc 75 07 d1 bc 23 51 ab bc
       0.03871635 -0.016128464 -0.025516251 -0.020912712

linear1.bias f4 [64]
000000 78 f6 04 3c bd fc 14 3c fa 76 68 3b 59 d6 e0 3c
       0.008115403 0.009093461 0.0035471306 0.027445959
000010 51 4f a7 3b 90 be 07 3c 53 51 42 3b c3 d9 fb 3c
       0.005105891 0.00828518 0.0029650524 0.030743485
000020 23 df ac 3c 18 97 2e bd ec e5 41 3c e8 d8 30 bc
       0.021102494 -0.042624563 0.011834603 -0.010793902
000030 bd a1 32 3d 6a 83 30 bb 04 2a 53 bd 50 c5 d2 3c
       0.043611277 -0.0026933798 -0.05155374 0.025728852
000040 09 6c a4 3c 8c 24 a3 3c 6c bb 20 bd 95 13 09 bd
       0.020071046 0.019914888 -0.03924124 -0.03346594
000050 1e 3b 05 3d 8a f8 d9 3b f2 3b 32 bc 6d 3d 2c 3c
       0.03252708 0.0066519426 -0.01087855 0.010512692
000060 d9 bf 4f bd eb 24 17 bd ca 8f 4c bb 01 bf 34 bc
       -0.05072007 -0.036900442 -0.0031213635 -0.011031867
000070 df cb 83 3b b6 45 4f 3d 75 f4 37 3d 5b a2 3b bc
       0.004022106 0.05060359 0.044910867 -0.011452283
000080 20 d2 81 bc 8e c2 c7 3c 39 20 37 bc f7 85 7d 3d
       -0.015847266 0.024384763 -0.011177116 0.061895337
000090 f2 f6 3d 3c 8c 5b 01 bd ce 9e 94 3b e4 b5 7f 3b
       0.011594521 -0.031581447 0.0045355326 0.0039018327
0000a0 32 ef 2c 3d 65 40 3d bd 0f 56 3a bd 6a cf e4 3c
       0.042220302 -0.04620399 -0.045492228 0.027930934
0000b0 0d f2 9d bc 72 2b 50 3b 43 61 19 3c a3 6a 12 3d
       -0.019280458 0.0031764177 0.009361568 0.035746228
0000c0 29 fc e1 bb dd 96 22 3d de 16 d5 bb 88 3f 49 3d
       -0.006896515 0.039694656 -0.00650297 0.049132854
0000d0 77 1c f1 bc 64 cb 9f bc 16 2b 18 bd a6 96 24 bc
       -0.029432518 -0.019506164 -0.037150465 -0.010045683
0000e0 5a 15 3a 3c da 61 ea bc a8 51 14 3d 8c eb f9 bc
       0.01135763 -0.028611112 0.036210686 -0.030507825
0000f0 64 48 ac bc c2 a5 82 3b b9 5b 93 3b 10 86 fe 3c
       -0.021030612 0.003987045 0.004497018 0.031069785
